…
23-05-16 15:22:41.671 - INFO: Dataset [LQGTDataset - DIV2K] is created.
23-05-16 15:22:41.672 - INFO: Number of train images: 800, iters: 400
23-05-16 15:22:41.672 - INFO: Total epochs needed: 1250 for iters 500,000
23-05-16 15:22:41.675 - INFO: Dataset [LQGTDataset - val_DIV2K] is created.
23-05-16 15:22:41.675 - INFO: Number of val images in [val_DIV2K]: 100
23-05-16 15:22:43.764 - INFO: Network structure: DataParallel - WaveNet, with parameters: 38,367
23-05-16 15:22:43.764 - INFO: WaveNet(
  (haar_operations): ModuleList(
    (0): learn_wavelet(
      (lifting): learn_lifting97(
        (skip1): Conv2d(1, 1, kernel_size=(3, 1), stride=(1, 1), bias=False)
        (p_block1): P_block(
          (padding_reflect): ReflectionPad2d((1, 1, 1, 1))
          (conv_pre): Conv2d(1, 16, kernel_size=(3, 3), stride=(1, 1))
          (res1): ResBlock(
            (padding): ReflectionPad2d((1, 1, 1, 1))
            (conv1): Conv2d(16, 16, kernel_size=(3, 3), stride=(1, 1))
            (relu): ReLU()
            (conv2): Conv2d(16, 16, kernel_size=(3, 3), stride=(1, 1))
          )
          (res2): ResBlock(
            (padding): ReflectionPad2d((1, 1, 1, 1))
            (conv1): Conv2d(16, 16, kernel_size=(3, 3), stride=(1, 1))
            (relu): ReLU()
            (conv2): Conv2d(16, 16, kernel_size=(3, 3), stride=(1, 1))
          )
          (conv_post): Conv2d(16, 1, kernel_size=(3, 3), stride=(1, 1))
        )
        (skip2): Conv2d(1, 1, kernel_size=(3, 1), stride=(1, 1), bias=False)
        (p_block2): P_block(
          (padding_reflect): ReflectionPad2d((1, 1, 1, 1))
          (conv_pre): Conv2d(1, 16, kernel_size=(3, 3), stride=(1, 1))
          (res1): ResBlock(
            (padding): ReflectionPad2d((1, 1, 1, 1))
            (conv1): Conv2d(16, 16, kernel_size=(3, 3), stride=(1, 1))
            (relu): ReLU()
            (conv2): Conv2d(16, 16, kernel_size=(3, 3), stride=(1, 1))
          )
          (res2): ResBlock(
            (padding): ReflectionPad2d((1, 1, 1, 1))
            (conv1): Conv2d(16, 16, kernel_size=(3, 3), stride=(1, 1))
            (relu): ReLU()
            (conv2): Conv2d(16, 16, kernel_size=(3, 3), stride=(1, 1))
          )
          (conv_post): Conv2d(16, 1, kernel_size=(3, 3), stride=(1, 1))
        )
        (skip3): Conv2d(1, 1, kernel_size=(3, 1), stride=(1, 1), bias=False)
        (p_block3): P_block(
          (padding_reflect): ReflectionPad2d((1, 1, 1, 1))
          (conv_pre): Conv2d(1, 16, kernel_size=(3, 3), stride=(1, 1))
          (res1): ResBlock(
            (padding): ReflectionPad2d((1, 1, 1, 1))
            (conv1): Conv2d(16, 16, kernel_size=(3, 3), stride=(1, 1))
            (relu): ReLU()
            (conv2): Conv2d(16, 16, kernel_size=(3, 3), stride=(1, 1))
          )
          (res2): ResBlock(
            (padding): ReflectionPad2d((1, 1, 1, 1))
            (conv1): Conv2d(16, 16, kernel_size=(3, 3), stride=(1, 1))
            (relu): ReLU()
            (conv2): Conv2d(16, 16, kernel_size=(3, 3), stride=(1, 1))
          )
          (conv_post): Conv2d(16, 1, kernel_size=(3, 3), stride=(1, 1))
        )
        (skip4): Conv2d(1, 1, kernel_size=(3, 1), stride=(1, 1), bias=False)
        (p_block4): P_block(
          (padding_reflect): ReflectionPad2d((1, 1, 1, 1))
          (conv_pre): Conv2d(1, 16, kernel_size=(3, 3), stride=(1, 1))
          (res1): ResBlock(
            (padding): ReflectionPad2d((1, 1, 1, 1))
            (conv1): Conv2d(16, 16, kernel_size=(3, 3), stride=(1, 1))
            (relu): ReLU()
            (conv2): Conv2d(16, 16, kernel_size=(3, 3), stride=(1, 1))
          )
          (res2): ResBlock(
            (padding): ReflectionPad2d((1, 1, 1, 1))
            (conv1): Conv2d(16, 16, kernel_size=(3, 3), stride=(1, 1))
            (relu): ReLU()
            (conv2): Conv2d(16, 16, kernel_size=(3, 3), stride=(1, 1))
          )
          (conv_post): Conv2d(16, 1, kernel_size=(3, 3), stride=(1, 1))
        )
      )
    )
  )
  (gmm): GaussianMixture()
)
23-05-16 15:22:43.793 - WARNING: Params [module.haar_operations.0.lifting.skip1.weight] will not optimize.
23-05-16 15:22:43.794 - WARNING: Params [module.haar_operations.0.lifting.skip2.weight] will not optimize.
23-05-16 15:22:43.794 - WARNING: Params [module.haar_operations.0.lifting.skip3.weight] will not optimize.
…
